assets/logistic.tflite (tflite, 787992 bytes, 1 tensors)

arith.constant f4 [1, 196608]
-0.00066905346 -0.00019402664 -0.0042388905 -0.005918866 0.003754735 0.0023923623 0.0026618305 -0.0022146394
0.004364959 4.986984e-05 0.0045616343 0.0022287038 0.0012584368 -0.0028038647 -0.0052384376 0.003585447
0.0019216846 -0.0024841332 -0.005099819 0.0050810566 -0.00023881275 0.0012750758 -0.0046978835 -0.001631714
-0.0041830465 -2.4645124e-06 -0.002799665 -0.00032705822 0.004912854 0.001527323 -0.0009449372 -0.00024397782
0.00019584691 -0.002081492 -0.00303899 0.0037017204 0.0007620573 -0.003633648 -0.0059549296 0.0030127075
0.0008641191 -0.0010913438 0.0020569789 0.00045541776 -0.0041446313 -0.005427303 -0.0014742598 0.0028620684
0.001560454 0.00577261 -0.005396051 0.0031289542 0.0021028908 0.00028619345 0.0030206265 0.0005488675
-0.0041642073 0.00087749196 -0.0025740776 -0.0056593693 0.0004149104 -0.0007688226 0.0017321031 0.0017493595
0.005178418 0.0024097068 -0.0010878805 -0.0004316606 -0.0060380707 -0.0042897332 -0.0020216699 0.004650805
0.0015399655 0.0042089103 -0.0032830266 -0.0031044544 0.0014716592 0.0020903335 0.0045774337 0.0017258805
-0.0015102783 0.0043611233 0.005604019 -0.0036151605 0.0008709748 0.0011205416 -0.0041017826 0.0040161866
0.0042219697 0.0025676673 -0.005343775 -0.0021772175 -0.0023499783 -0.0033223496 0.00048917497 0.00436194
0.002725882 -0.0011883928 -0.003777271 -0.0038375836 -0.003303155 0.0039790347 -0.004637163 -0.0018080295
-0.0046219886 0.0028260583 -0.00010257868 0.0005088796 -0.0024311119 -0.0041688997 0.001645179 -0.0031806089
0.0016118629 -0.0024678123 -0.003980986 -0.0052285995 0.002152731 0.00376864 0.0028527936 0.0014122337
0.0024018944 -0.0017320071 -0.002462098 0.003852562 0.0029148245 -0.006255714 -0.0023946806 5.1702205e-05
0.0018760884 0.0044096806 0.0056361263 0.004242957 -0.0027724472 0.005428813 0.0023546228 -0.005626272
-0.00018852 -0.0041362094 -0.002679621 0.0022135035 0.002038843 0.0020828648 0.005242107 -0.0035663208
-0.00554393 0.0031037128 -0.00091149646 -7.2029696e-05 -0.0028881168 -0.0014912193 -0.0043459837 -0.0054892767
-0.0013436723 0.0033911685 0.0036653765 -0.00017543312 -0.0007950379 0.0021632898 -0.0056513664 0.0024979752
0.0046732877 -0.0014544363 -0.0061449716 0.003332534 -0.005401926 0.004308136 0.0012126891 -0.006267401
-0.0034480656 0.005562928 -0.0036276574 -0.004082989 0.0024231928 0.0037488178 -0.0027102872 -0.002450517
0.0048583033 -0.00022230767 0.001599779 0.00018552039 -0.0028797092 0.0007075837 -0.0041872375 -0.0047208443
-0.0024881014 0.0019446802 -0.0026058161 -0.002574099 0.004132055 -0.0011069658 -0.0035160023 -0.0026434285
-0.0016838427 0.00045233546 0.00026802963 -0.002197798 0.006041302 0.0035667073 -0.004557797 -0.004250055
-0.0029481405 0.00513253 -0.00074291223 -0.00500528 0.0022446066 0.003209555 0.00044395425 -0.004083506
0.0025633215 -0.0029735141 4.0859188e-05 -0.003076744 0.0014978108 0.003231785 0.002073453 0.0040873135
0.0006165835 -0.002296427 -0.0002535797 0.0019222397 0.0015049607 0.0042171297 -0.0057774833 -0.003584555
-0.0052199224 0.0037094625 0.004316546 -0.00014480745 0.0024136808 -0.004090593 -0.00574973 0.0028034502
0.0022602542 -0.006000221 -0.0038681838 0.002376046 -0.0026476874 -0.005031608 0.004035303 -0.0006544553
0.0010980631 -0.0027794167 -0.0010526549 0.003095582 0.004848557 -0.005708884 -0.0026877206 0.0064836536
0.0027838533 0.002931243 0.0015193574 -0.0027637833 0.0012763869 0.006511952 -0.0015491411 0.0019960257
00000000: 6b63 2fba a173 4bb9 64e6 8abb 0cf3 c1bb
00000010: 0012 763b 2ec9 1c3b 1b72 2e3b 7c23 11bb
00000020: ee07 8f3b 552b 5138 c379 953b 720f 123b
00000030: 22f2 a43a 0bc1 37bb 33a7 abbb d2f9 6a3b
00000040: 09e1 fb3a d7cc 22bb 621c a7bb fe7e a63b
00000050: cf69 7ab9 7220 a73a b4f0 99bb 3ddf d5ba
00000060: f011 89bb 0064 25b6 967a 37bb 0379 abb9
00000070: 02fc a03b 7530 c83a a9b5 77ba 4cd4 7fb9
00000080: 415c 4d39 a469 08bb cb29 47bb 9098 723b
00000090: cdc4 473a 7f22 6ebb 9221 c3bb d870 453b
000000a0: 0d86 623a 6c0b 8fba 61ce 063b 23c5 ee39
000000b0: b0cf 87bb 84d7 b1bb f33b c1ba 8a91 3b3b
000000c0: 2688 cc3a 2a28 bd3b 5bd1 b0bb 240f 4d3b
000000d0: a7d0 093b 3c0c 9639 b4f5 453b e0e1 0f3a
000000e0: e773 88bb 7d07 663a dbb1 28bb 3b72 b9bb
000000f0: 5588 d939 d08a 49ba bc07 e33a c44a e53a
00000100: b8af a93b 2cec 1d3b 3697 8eba 8150 e2b9
00000110: 02db c5bb e490 8cbb fe7d 04bb c865 983b
00000120: abd8 c93a e6ea 893b 0c28 57bb 1a74 4bbb
00000130: b0e4 c03a fafd 083b 4cfe 953b f136 e23a
00000140: 88f4 c5ba c1e7 8e3b eba1 b73b 54ec 6cbb
00000150: 2152 643a 23df 923a 3f68 86bb 379a 833b
00000160: 7358 8a3b 4f46 283b d51a afbb a6af 0ebb
00000170: 1802 1abb c7bb 59bb fa3b 003a 9bee 8e3b
00000180: b6a4 323b d8c3 9bba 178c 77bb f87f 7bbb
00000190: bf79 58bb 9062 823b 58f3 97bb 67fb ecba
000001a0: 0d74 97bb 6435 393b 821f d7b8 5566 053a
000001b0: 4a53 1fbb 449b 88bb 0ca3 d73a c371 50bb
000001c0: 2545 d33a 05bb 21bb ee72 82bb ac54 abbb
000001d0: d514 0d3b 4afb 763b eff5 3a3b b31a b93a
000001e0: 1a69 1d3b 8404 e3ba 265b 21bb 447b 7c3b
000001f0: a406 3f3b bcfc ccbb 13f0 1cbb d2da 5838
00000200: 15e7 f53a 157f 903b 41af b83b 8108 8b3b
00000210: f2b1 35bb 2fe4 b13b 0450 1a3b 975c b8bb
00000220: 74ad 45b9 0a89 87bb 959c 2fbb 6d10 113b
00000230: 1c9e 053b ac80 083b fbc5 ab3b efb8 69bb
00000240: dba9 b5bb a967 4b3b 7ef1 6eba a60e 97b8
00000250: 8f46 3dbb 0475 c3ba c168 8ebb 64df b3bb
00000260: 291e b0ba 5e3e 5e3b d036 703b 78f4 37b9
00000270: 176a 50ba fbc5 0d3b 192f b9bb 12b5 233b
00000280: 6122 993b c9a2 beba c25b c9bb a566 5a3b
00000290: a402 b1bb 442b 8d3b 18f3 9e3a c55e cdbb
000002a0: f1f8 61bb 3949 b63b febd 6dbb 98ca 85bb
000002b0: 6ece 1e3b baae 753b 139f 31bb da98 20bb
000002c0: 6732 9f3b 431b 69b9 adaf d13a 4088 4239
000002d0: 81b9 3cbb 237d 393a 1835 89bb 50b1 9abb
000002e0: 6a0f 23bb a4e4 fe3a 57c6 2abb 37b2 28bb
000002f0: 3166 873b 9c17 91ba bb6c 66bb 5f3d 2dbb
00000300: 63b4 dcba 7027 ed39 5486 8c39 ef08 10bb
00000310: 1df6 c53b 6bbf 693b 9359 95bb 0c44 8bbb
00000320: 9735 41bb c82e a83b ffbf 42ba 5503 a4bb
00000330: 401a 133b 6657 523b 88c2 e839 eece 85bb
00000340: 66fd 273b 4adf 42bb 3860 2b38 33a3 49bb
00000350: 3152 c43a 5bcc 533b c5e2 073b dfee 853b
00000360: 38a2 213a a77f 16bb e4f2 84b9 a9f3 fb3a
00000370: 1a42 c53a d92f 8a3b 0b51 bdbb daea 6abb
00000380: e20b abbb 741a 733b d071 8d3b 74d7 17b9
00000390: d82e 1e3b 620a 86bb 3b68 bcbb 17ba 373b
000003a0: c620 143b 809d c4bb 5b81 7dbb 70b7 1b3b
000003b0: d384 2dbb 30e0 a4bb 933a 843b c08f 2bba
000003c0: e2ec 8f3a e026 36bb 3df9 89ba 3fdf 4a3b
000003d0: a5e0 9e3b 9711 bbbb 7824 30bb d474 d43b
000003e0: 4f71 363b 191a 403b 2d25 c73a 9720 35bb
000003f0: 704c a73a 3662 d53b 8d0c cbba c1cf 023b
