assets/logistic__optim.tflite (tflite, 50712 bytes, 1 tensors)

arith.constant f4 [1, 12288]
00000000: 9bd0 923c f1be 9abc 032d 1cbc 3d45 31bc
00000010: e7f7 9cbc 08a0 49bb 7538 a1bb 6730 60bc
00000020: 4faf fa3b b6d4 98bc 669c 14ba b7bf 9e3b
00000030: c5fd 57bc aa27 233c a1e8 333c 2183 963b
00000040: 3c88 833c 1749 afbc 828c d13b 5858 9dbc
00000050: cd1c a1bb e03e a33b 0ca1 85bb 96b2 863c
00000060: 1f9d 60bc a598 123c 57ca af3c d839 0a3c
00000070: c861 b8bb b1bd e0bb 431d 81ba 8772 ccbb
00000080: 46e6 c63a e6bd ec3b 027c 9bbb fd35 6fba
00000090: 6c7a 25bc c614 0cbc e1e9 9f3c ecea 0cbc
000000a0: 5245 bfbb 9877 b03c 9a53 2dbc 108b 44bc
000000b0: 26af 56bc 2416 31bc c3e2 c13b 6df2 a3bc
000000c0: b119 95bc 086f 9c39 deee dbbb edb2 8cbc
000000d0: d992 55bc 685d 3cbc 7940 92bc 98dd 203c
000000e0: 3c23 4fbc 8137 a8bb ac41 293c 4efc c9bb
000000f0: e103 af3c d411 4bbc 9482 64bc e758 42bc
00000100: d4e4 4bbc 9f70 a83c 96a5 6b3c db38 953b
00000110: 33af 4cbc 249a 0cbc 8811 f33b bc8a 05bb
00000120: 5cf4 36bc 147f 25bc f0cf 9a3c 13aa 543c
00000130: a8e8 803c 1d2a 823c e928 b4bc 61e0 a43c
00000140: 9707 6bbc 0563 35bc c873 48bc d00a 3fbc
00000150: 38b2 723c edf5 abbc db33 333c f36f 98bc
00000160: 8851 5d3c 5be5 863b 2648 a23b 7ae2 fa3b
00000170: 9c95 9c39 f251 f13a bd5c b6bc e228 9c3c
00000180: eb68 b0bc 8317 ad3c 174c e1bb 28dc 3abc
00000190: 106f 9ebc 3e6d f63b 6e04 253b 9fc9 3b3c
000001a0: 8ecb a4bc 901e b03c 59a6 9d3c 8bd0 7cbc
000001b0: c9fa bf3a bca4 83bc 119c aeba fa0a e83b
000001c0: c408 343c 2585 92bb 3c37 75bc 7847 193c
000001d0: 1422 9ebb 3c45 aa3c 0f81 703c 1df4 9dbc
000001e0: b0f2 823c a507 8c3c c37b a93c e619 afba
000001f0: 9e9f 663c 7036 81bb c3a2 1d3c 1b9d 63bc
00000200: 57d9 f73a e8ee 0d3c ecb3 55bb b9bf c23a
00000210: 79cf 593c 77c9 0b3c 16c2 2ebb 2001 a4bc
00000220: 3d95 52bc 41b2 a0bc e036 aeba cffb 01bb
00000230: 883c 52bc 61fc a73a 2f0a 753c dd27 4a3c
00000240: f433 f63a 4172 c639 fcec 013c 63ee acbb
00000250: 4667 ae3c 177c c4bb b815 d03b c488 703c
00000260: 53f5 5d3c 8502 83bc ee8d 95bc 015f 083a
00000270: 7d0d ad3c d99f 873b 4753 9d3c e975 a0bc
00000280: 2d8e 18bc 9fad 21bc 20fe 44ba cd6b 0cbc
00000290: 7b37 3ebc a46f 9bbb 0665 6bbc be88 963c
000002a0: 973f 9fbc 4117 643c 8113 15bc cadd 853c
000002b0: 6172 543b 844f 53bc 7472 223c 83bd 6d3b
000002c0: 0a6e 1d3b 95ea 733c 56e2 39bb 7a54 f83b
000002d0: beeb 4b3c fcc0 fd3b fe1e c5ba 1947 9abc
000002e0: 296a bbbb 761f dc3b 8cc4 59bc 8515 4bbc
000002f0: 66e4 39bc 7abe f3bb 218a 2f3c 21b5 6bbc
00000300: 79f2 e33b 0cf6 89ba 9341 2b3b afc7 3bbc
00000310: ce83 8f3c 3a07 d93a 942c 9ebc 705c a8bc
00000320: 525e 35bc 12b7 2ab9 1c49 823c 4624 b03c
00000330: 64c4 aa3c 65df 403c b2ed 3b3c bff7 7b3c
00000340: 5bc4 33bc 20ff 1abc 5f2b 553c 1aa3 a93b
00000350: e44f 80bb 742f a03c c867 ec3b d838 8d3c
00000360: ee80 013c 41ca a6bc 3162 7e3c d846 903c
00000370: df2f 1fbc 9cf6 acbc 72c4 1bbc cea7 2b3b
00000380: 1cfb b3bc 0661 9ebc 11a7 26bc a1a9 a0bc
00000390: c447 d33b ef2b ea3b 8979 05bb 281f 3f3c
000003a0: f00e 9a3c f30d a33c 805d 0d3c dc0d 9c3c
000003b0: 2772 183c ad77 18ba 6627 aabb e7b7 55bc
000003c0: 4a33 61bb e26a 8ebc 3729 a7bb 3db9 b03c
000003d0: 6952 13bc 25c6 75bc 7854 b2bc e4d2 b1bc
000003e0: 16b3 893c b1fc 7dbb 12e3 06bb 66e9 66bc
000003f0: 43c8 843b 798a 8b3c 0e6a 5a3c 1d43 a6bb
0.017921736 -0.018889876 -0.009532216 -0.01081973 -0.019161178 -0.0030765552 -0.0049200603 -0.013683415
0.007650293 -0.018656116 -0.0005669057 0.0048446315 -0.013183062 0.009958187 0.010980756 0.0045932685
0.016056173 -0.021397157 0.0063949237 -0.019207165 -0.0049167634 0.0049818605 -0.004078036 0.016442578
-0.013709336 0.008947526 0.021458788 0.008436643 -0.005626891 -0.0068585505 -0.000985064 -0.0062392387
0.0015174828 0.007224786 -0.0047450075 -0.00091251713 -0.010099988 -0.008549875 0.019520702 -0.008600932
-0.005837121 0.021541402 -0.010579014 -0.011996046 -0.013103282 -0.010808501 0.0059169247 -0.020013059
-0.018200727 0.00029837363 -0.006711825 -0.017175162 -0.0130354995 -0.011496879 -0.017853009 0.009818457
-0.012642678 -0.0051335697 0.010330599 -0.0061641103 0.021364154 -0.012394387 -0.013947148 -0.011862016
-0.012444694 0.020561514 0.0143827405 0.004553897 -0.012492943 -0.008581672 0.0074178614 -0.0020376882
-0.011166658 -0.010101099 0.01889798 0.012980002 0.01573594 0.015889222 -0.021992164 0.020126523
-0.014345071 -0.011070971 -0.012234636 -0.011660293 0.0148129985 -0.02099129 0.010937656 -0.018608069
0.013508208 0.004116697 0.0049524484 0.0076563926 0.00029866106 0.0018411262 -0.022261018 0.019062463
-0.021534404 0.021129375 -0.0068755257 -0.011405028 -0.019340068 0.007520347 0.0025179642 0.011461644
-0.020116594 0.021498948 0.01924436 -0.01543058 0.0014646883 -0.016069762 -0.0013321658 0.0070813866
0.010988418 -0.0044714385 -0.014966782 0.009355418 -0.00482584 0.020784967 0.0146792075 -0.019281441
0.015984863 0.017093489 0.020688897 -0.0013359159 0.014076142 -0.003943257 0.009621325 -0.013892437
0.0018909377 0.008662917 -0.0032608462 0.0014858163 0.013294094 0.00853192 -0.0026665977 -0.020020068
-0.012852964 -0.019616248 -0.00132915 -0.0019833928 -0.012831815 0.0012816304 0.014956041 0.012338606
0.0018783794 0.0003785063 0.007930037 -0.0052774413 0.021289479 -0.005996238 0.0063502453 0.014681045
0.013547259 -0.015992412 -0.018256154 0.0005202145 0.021124596 0.0041389284 0.019204749 -0.019587474
-0.009311241 -0.009868055 -0.0007514674 -0.008570624 -0.011609907 -0.004743533 -0.014367348 0.01837575
-0.019439502 0.01392156 -0.009098888 0.016341109 0.0032416808 -0.012897376 0.009914983 0.0036276288
0.0024021887 0.014887472 -0.0028363666 0.0075784298 0.012446342 0.007743953 -0.0015039144 -0.01883273
-0.0057194424 0.0067176176 -0.013291489 -0.012395267 -0.011345958 -0.007438478 0.010714085 -0.014386446
0.006956395 -0.0010525598 0.0026131615 -0.0114611825 0.017518904 0.001655794 -0.019308366 -0.02055189
-0.011069851 -0.00016280662 0.015904002 0.021501672 0.0208456 0.011772011 0.011470245 0.0153788915
-0.010972108 -0.009460241 0.013010829 0.005176914 -0.0039157737 0.019553877 0.00721452 0.01723902
0.007904274 -0.020360114 0.01552634 0.017611906 -0.009716003 -0.021113686 -0.009507285 0.0026192549
-0.021970324 -0.019333374 -0.010171668 -0.019612135 0.006447764 0.0071463506 -0.002036663 0.011665143
0.01880595 0.019904112 0.008628249 0.019049577 0.00930456 -0.0005816173 -0.005192685 -0.013044334
-0.0034362846 -0.01738495 -0.0051013487 0.021572703 -0.008991816 -0.015000855 -0.021768793 -0.021707006
0.016809028 -0.0038755352 -0.0020582122 -0.014093732 0.0040521934 0.017033802 0.0133309495 -0.0050739185
